models/wafer_mobilenetv3.onnx (onnx, 299125 bytes, 18 tensors)

features.1.block.1.fc1.bias f4 [8]
000000 91 51 ec b0 95 32 1f b1 a7 7f 2b b9 bd 04 01 b1
       -1.7194443e-09 -2.3166298e-09 -0.00016355385 -1.8774664e-09
000010 a1 2d b1 b0 91 99 96 32 57 60 c2 b1 35 b2 d4 2e
       -1.2891413e-09 1.7532132e-08 -5.6570957e-09 9.6723e-11

features.1.block.1.fc2.bias f4 [16]
000000 ee a9 11 3f ea d0 26 3f fc 93 c5 3e ca 1d 92 bf
       0.5689992 0.6516253 0.38589466 -1.1415341
000010 2b 44 39 bf 7e 20 ad 3f 24 06 b9 be f1 8f fc be
       -0.7236964 1.3525541 -0.36137497 -0.4932857
000020 6f 98 10 3f 83 ef b1 be 01 1c 23 3f af a7 68 be
       0.56482595 -0.34753045 0.63714606 -0.22720216
000030 b2 67 df be 3e c5 e5 bd be 09 26 3e 24 1b b8 be
       -0.436338 -0.112192616 0.16214654 -0.35958207

features.4.block.2.fc1.bias f4 [24]
000000 8c bd 48 b1 07 39 d9 b1 70 5b a2 b0 39 ea 90 b1
       -2.9211575e-09 -6.3220145e-09 -1.1813039e-09 -4.2175796e-09
000010 28 96 12 b1 21 71 a4 b1 48 8a 5e b1 a3 25 f4 31
       -2.133115e-09 -4.7858895e-09 -3.2383856e-09 7.1056134e-09
000020 2b f0 91 af bc 9d cb b1 f7 3f 51 3e 58 4d 04 b1
       -2.6545996e-10 -5.92601e-09 0.20434557 -1.9252493e-09
000030 d3 29 86 b1 b0 27 f4 b2 48 0c 49 30 87 5e bd af
       -3.904668e-09 -2.8423386e-08 7.3140827e-10 -3.4446065e-10
000040 a5 31 fb b0 3c d1 99 b1 65 a7 8c b0 2d ab ae b0
       -1.8276763e-09 -4.4766733e-09 -1.0233917e-09 -1.2708817e-09
000050 a3 85 20 31 1f 12 11 b2 9c 92 8a b1 78 2d f7 ae
       2.3359028e-09 -8.444231e-09 -4.032996e-09 -1.12403364e-10

features.5.block.2.fc1.bias f4 [64]
000000 94 dc c0 bc b9 7d 92 3e 7f a1 ab 3a 87 aa d3 3d
       -0.02354268 0.28611544 0.0013094394 0.1033526
000010 d0 45 0a 3e 24 0c d8 3d af 5f 5a 3e 71 84 fa 3d
       0.13503194 0.10549191 0.21325563 0.122322924
000020 66 4f 15 be d9 ca d8 bd fd 9b 47 3e 5a f4 29 3e
       -0.1458107 -0.10585565 0.19493099 0.16597119
000030 c5 96 b7 be f2 52 be bd bb f1 eb 3d b8 e6 ae 3c
       -0.35857216 -0.09293164 0.11520716 0.02135025
000040 8e 37 5f bd 4e c4 c7 3e 7c d3 ce 3d d1 34 fb bc
       -0.05449634 0.39016956 0.10098931 -0.030664833
000050 d4 45 9d 3d 30 4c fb 3c 51 23 e4 3d d8 14 e1 3e
       0.07679334 0.030675977 0.111395486 0.43961215
000060 fd 98 a4 3d 17 92 13 3e 49 d4 30 3e e8 c5 99 3b
       0.08036993 0.14411198 0.1726848 0.0046927817
000070 f3 69 48 3e 3e eb 63 bd b5 b4 15 be c3 17 1d 3e
       0.19571666 -0.055644266 -0.14619716 0.15341096
000080 cc 5b 97 bd 91 54 d9 bb f1 75 e8 3d ac 49 d7 3d
       -0.07390556 -0.0066323956 0.113506205 0.10512099
000090 2d 73 7b bc c5 36 97 3e 14 d9 96 bc bf 06 63 bd
       -0.015347284 0.29533973 -0.018414058 -0.055426355
0000a0 26 34 12 3f 7e 1a 64 3e 58 d5 61 3e b1 c1 ca 3d
       0.5711082 0.22275731 0.2205404 0.09900225
0000b0 dd 24 9b 3e ed 8e 1c 3d 77 54 ae bd 04 34 bd 3c
       0.30301562 0.038222242 -0.08512204 0.023096092
0000c0 94 68 da bc 7c 3c 0d 3e be 53 d0 bd a0 38 89 3d
       -0.026661195 0.13792604 -0.101722226 0.067002535
0000d0 34 4e 8b 3c 1c 35 85 3c cc f5 56 3e 08 36 04 3e
       0.017005064 0.016260676 0.20992202 0.12911236
0000e0 34 7c 00 bd 98 8e 3f 3d 8a 7b 08 3f fe 7c 85 3e
       -0.03136845 0.046766847 0.53313506 0.26071924
0000f0 74 4d 7f 3d c1 2b 60 3d e5 8e 81 bc 04 13 1c 3e
       0.062329724 0.054729227 -0.015815208 0.15241629

features.6.block.2.fc1.bias f4 [64]
000000 0a ea 62 3c 95 12 a8 3d fb ab 4f bd b0 15 60 3e
       0.013849745 0.08206669 -0.050701123 0.21883273
000010 fc 0f 08 3e ee 3a 36 3e ba eb ce 3c f1 0c da bc
       0.13287348 0.17795917 0.025258888 -0.026617499
000020 b9 8d 45 3e cf 74 8e 3e 43 f6 95 3d f8 ac 14 3e
       0.19292344 0.27823493 0.07322361 0.14519107
000030 15 96 fd 3d da 1c b8 3d 6c 97 30 bc df 89 03 bd
       0.123821415 0.08989878 -0.010778289 -0.032113906
000040 9d 91 c0 3c ba d1 64 3e e3 fd b7 3e b0 57 a1 3e
       0.023506934 0.2234563 0.35935888 0.31512213
000050 77 73 0e bd 76 6a 1b 3e b8 16 8e 3d dc e2 16 3e
       -0.034778085 0.1517733 0.06937927 0.14734977
000060 92 34 95 bd b9 70 7c 3e 3a f4 7e 3d 0b 2c 7a 3a
       -0.072854176 0.24652375 0.06224463 0.0009543306
000070 d1 9a 75 3d 11 41 59 3e 4e 6e 19 be a9 20 cc 3c
       0.059962098 0.21216227 -0.14983484 0.024917917
000080 db d2 43 bd 3b f4 72 3d b9 31 f6 3c b3 6a f6 3d
       -0.04780851 0.059314948 0.030053006 0.1203207
000090 15 e1 1e 3f b8 39 1b 3e 4c d4 8f 3d 7d ad 67 3e
       0.620622 0.15158737 0.07022914 0.22624774
0000a0 8e 02 3d 3e 69 ab 9d 3d 4a 07 d7 3c 58 ba 25 3e
       0.18458006 0.076987095 0.026248593 0.16184366
0000b0 22 a0 54 3e cd bd 84 3e 19 f1 8f 3c b3 22 e4 3d
       0.20764211 0.25926057 0.017571019 0.11139431
0000c0 75 c9 d5 3d b1 44 06 3d 73 6c de 3d aa 24 a9 3e
       0.104388155 0.032780353 0.10860529 0.33035785
0000d0 74 90 c8 bc a8 7a 28 be 2c 30 76 be cf a1 b1 3e
       -0.024482943 -0.1645304 -0.24041814 0.34693763
0000e0 0f ed d3 3c 31 d9 a7 3d a7 50 5e 3d 7b 89 3f 3d
       0.025869874 0.08195723 0.054276135 0.04676197
0000f0 80 1b 02 3e c8 af 60 3e a4 9e 21 3d 47 2f 12 3d
       0.12705803 0.21942055 0.039457932 0.03568962

features.7.block.2.fc1.bias f4 [32]
000000 88 fe 2f 2f 1c e5 84 b1 f5 28 1c b2 5f 18 45 b4
       1.6006585e-10 -3.8677523e-09 -9.089708e-09 -1.8355921e-07
000010 dc f0 66 b4 7d d0 6e 30 c9 23 1b b3 8d c9 04 b2
       -2.1508043e-07 8.6880175e-10 -3.6121296e-08 -7.729239e-09
000020 cd 6c e2 32 0a 5f 17 3d 6d c0 f5 bb 73 9b ed b2
       2.635934e-08 0.03695587 -0.0074997456 -2.7661121e-08
000030 08 b7 9e 3e 2b 1b b6 32 49 06 81 32 4a 35 f7 3c
       0.30999017 2.1199943e-08 1.5020435e-08 0.030176777
000040 b1 b3 eb b5 95 e7 ae 32 04 18 67 bd 9f a6 ef 32
       -1.7561161e-06 2.0361577e-08 -0.056419387 2.7899032e-08
000050 18 6b d0 3c 68 86 20 32 9a 01 1b bd bd f4 55 b3
       0.025441691 9.343786e-09 -0.037843324 -4.9815515e-08
000060 61 bc a1 b2 23 a5 a8 30 b1 ab 04 b3 91 0d 0e b2
       -1.8828532e-08 1.2270543e-09 -3.0889797e-08 -8.2685725e-09
000070 30 93 fa b0 98 9f 95 31 7e 75 36 3d a1 91 94 32
       -1.8231727e-09 4.3546144e-09 0.044545643 1.7295692e-08

features.8.block.2.fc1.bias f4 [40]
000000 f6 b6 34 3e aa 67 b8 3d 26 84 a7 3e 91 d8 03 3f
       0.17647919 0.09004147 0.3271801 0.5150233
000010 e7 e6 a9 3d 12 b3 79 3e 55 6b f6 3d b7 bc 3c 3e
       0.08295994 0.24384716 0.12032191 0.18431364
000020 db c9 eb 3d a5 56 4c bd d8 49 7f 3d 1f 8e 02 3e
       0.1151311 -0.04988732 0.062326282 0.12749527
000030 4e 18 ba 3e db dd 85 3e f4 37 9c 3e fc 1a 85 3e
       0.36346668 0.26145825 0.3051144 0.2599715
000040 69 93 98 3d a7 0c 90 3e 3b 1d 84 3e 56 af c8 3c
       0.07449991 0.28134653 0.2580355 0.02449767
000050 31 ae 0e 3e 81 9a 5e 3e a7 2a d2 3e 15 a3 06 3f
       0.13933636 0.21738626 0.41048166 0.52592593
000060 3e 02 9a 3e 1e 00 cd 3d 89 fa 8c 3e 8d f8 92 3e
       0.30079836 0.10009788 0.27534893 0.28705254
000070 57 4d df 3e 2e 67 8a 3d 89 d9 7c 3e 2f 33 41 3e
       0.43613693 0.06757961 0.24692358 0.18867181
000080 88 d9 f4 3e 40 8c af 3d d1 6d 13 3e f3 de b2 3e
       0.47822213 0.085716724 0.1439736 0.34935722
000090 19 65 81 3e fe ba c8 3e 38 f4 b3 3e ea 65 61 3e
       0.25272444 0.39205164 0.35147262 0.22011533

classifier.3.bias f4 [10]
000000 76 38 e8 3c 98 c8 44 bc 64 98 0d 3c 16 d7 d6 3b
       0.028347235 -0.012010716 0.00864229 0.006556402
000010 f2 33 a1 bc f2 1f 20 bc d4 92 91 3c 71 8c 8b ba
       -0.01967809 -0.009773241 0.017770208 -0.0010646713
000020 30 af 75 3c f3 a0 b6 39
       0.014995381 0.00034833662

features.0.0.weight_bias f4 [16]
000000 b9 7a 96 40 40 16 22 40 00 1d 42 40 ff f4 d7 bf
       4.702481 2.532608 3.03302 -1.6871642
000010 b5 70 32 40 f8 7f 2f 40 2e 21 3f 3e 4b 05 83 bd
       2.788129 2.7421856 0.18665001 -0.06397494
000020 a8 a7 2a 40 3e 53 3c 40 7e 13 1b 40 28 0a 81 bf
       2.666483 2.9425807 2.4230647 -1.0081224
000030 6c c9 8f 3e ee 0b 09 3f 82 7e 93 3f ca ba 76 c0
       0.2808336 0.5353383 1.1522982 -3.8551507

features.1.block.0.0.weight_bias f4 [16]
000000 56 1f 05 3f 00 2b e1 3f 67 91 5f 40 a0 cb 80 3e
       0.5200094 1.7591248 3.4932497 0.25155354
000010 0c 1a 2c 3e 07 bf 42 40 8c 60 ca 3d 2c 53 18 3f
       0.16806811 3.0429094 0.09881696 0.5950191
000020 b7 6e f3 3f 70 3b e1 3e 18 ac 44 3e ca a6 40 3e
       1.9018162 0.4399066 0.19206274 0.18813625
000030 c6 c7 89 3e c1 c8 6c 3e dd 91 12 3e aa 73 d5 3f
       0.26910228 0.23123457 0.14313455 1.6675923

features.1.block.2.0.weight_bias f4 [16]
000000 3a b7 59 40 78 85 d4 c0 d0 d6 7c c0 fa 60 0e c0
       3.4018083 -6.6412926 -3.950611 -2.224669
000010 2a 2f 46 bf 33 2e 00 3f a3 db fa c0 07 e1 ef be
       -0.77415717 0.50070494 -7.839311 -0.4685137
000020 bb f8 02 c1 0f 3d 44 c0 0a 1d d8 3e 0b 7c 24 c0
       -8.185725 -3.0662267 0.42209655 -2.570071
000030 f5 4a 32 c0 f4 1d 01 c0 fa 49 7c bf b4 1e 1b 40
       -2.785825 -2.0174532 -0.9855038 2.423749

features.2.block.2.0.weight_bias f4 [24]
000000 51 2f 04 bf 8a b4 72 bf af ca 9a 40 05 40 03 bf
       -0.516347 -0.9480673 4.8372416 -0.5126956
000010 23 2d dc bf 45 10 27 c0 24 90 a0 3f 67 fc b4 40
       -1.7201275 -2.610368 1.2543988 5.655811
000020 20 3f 5c c0 11 12 bc bf ce 92 5b bd 8d b3 ef 3f
       -3.4413528 -1.4693013 -0.0536068 1.872667
000030 00 e1 a6 3e 33 a6 62 3f 41 31 26 40 8c 4d b9 3f
       0.32593536 0.8853485 2.5967562 1.447679
000040 b3 02 fa 3f 54 b0 42 3e e8 9c 06 40 db 81 ce 3f
       1.9532074 0.19012576 2.1033268 1.6133379
000050 a8 67 bf bf 3e 89 52 bf ac d2 e2 3b 20 d9 56 c0
       -1.4953508 -0.82240665 0.0069220867 -3.3570023

features.3.block.2.0.weight_bias f4 [24]
000000 e0 a1 96 c0 d1 53 eb 3e d0 bf cb 3f 62 44 e3 3e
       -4.70726 0.45962384 1.5917912 0.4438811
000010 42 c9 3b 3f 47 b5 5a 40 a7 16 45 bf 4c c1 f5 3f
       0.7335397 3.4173143 -0.7698769 1.9199615
000020 04 b0 fd be aa 30 83 be 5c 2a 1b 3e 05 a7 84 bf
       -0.49548352 -0.25623065 0.15152878 -1.036347
000030 bb 9c b0 bf 14 d5 f7 bf 9b eb 81 bf 50 17 b8 3f
       -1.379783 -1.9361901 -1.0150026 1.4382114
000040 28 d0 01 c0 a8 0d 3d c0 14 e4 26 3f c9 64 41 c0
       -2.0283298 -2.9539585 0.6519177 -3.0217764
000050 b4 de 12 bf 5a e0 56 3e 68 29 91 3f 42 e2 58 be
       -0.5737107 0.20984021 1.1340761 -0.2118006

features.4.block.3.0.weight_bias f4 [40]
000000 df fc a7 3c 8a ff f0 bf 94 a2 bf be c7 0c 0c c0
       0.02050632 -1.8827984 -0.37428725 -2.1882799
000010 e7 2b 71 3f 91 53 8a 3f bb 1b 30 bf fc 10 19 bf
       0.94207615 1.0806752 -0.68792313 -0.5979154
000020 95 eb 00 40 9f 43 14 3f f2 6c 5a 3f 31 8d be 3f
       2.0143788 0.5791568 0.8532249 1.4886838
000030 b3 ea 02 bf 9d 1b 79 c0 67 53 23 40 8d 03 be bd
       -0.5113937 -3.8923104 2.5519655 -0.09278021
000040 db f2 16 40 00 37 87 c0 12 d8 5e 40 c9 dd 0f 3f
       2.3585727 -4.225464 3.481938 0.5619779
000050 31 6b 75 be 48 0e 4d bf ec c3 37 3f 06 ac b4 bf
       -0.23966672 -0.80099916 0.7178333 -1.4114997
000060 2e 01 e3 3e 5d 09 38 3f af e2 b5 3f 39 a9 21 bf
       0.44336838 0.7188929 1.4209803 -0.6314884
000070 85 d8 ac bf 74 10 36 40 d6 9c 62 3e 2e 9e 12 bf
       -1.3503577 2.8447542 0.2213014 -0.57272613
000080 cb 7c df be 88 e5 8a 3f eb de 1a c0 9c 37 20 bd
       -0.43649897 1.0851297 -2.4198558 -0.039115533
000090 47 d7 02 c0 6d 31 c4 3f 64 1f 6c bf 10 2b 38 bf
       -2.0443895 1.5327584 -0.922354 -0.7194071

features.5.block.3.0.weight_bias f4 [40]
000000 02 08 b4 be 83 5e 65 3f 2c 4b ea bd f3 e5 2c 3f
       -0.3516236 0.8959734 -0.11440119 0.67538375
000010 f0 cb 55 3e 65 66 c9 be 17 64 ff be 13 1f 45 bf
       0.20878577 -0.39335933 -0.4988105 -0.7700054
000020 a1 d9 46 bf 34 79 a6 bd 47 23 81 3d bf fc b7 be
       -0.77675825 -0.081285864 0.06305557 -0.35935017
000030 fd 47 ec 3e a7 28 80 bf 87 3a 53 3f 81 10 de 3f
       0.46148673 -1.0012406 0.8251118 1.7348787
000040 5e f6 b0 3d df ae bc 3e af fa ee 3d 26 0a 70 be
       0.08640741 0.36852166 0.11668908 -0.23441371
000050 59 3b 3f be eb fd b9 3d b5 44 4f be 3b 1f b7 3e
       -0.18674983 0.09081634 -0.20241053 0.35766014
000060 64 7b 15 bf 4e 1f e1 bf 6c e8 2c 40 63 d6 a7 3f
       -0.58391404 -1.7587678 2.701686 1.3112301
000070 57 3e d2 bc f6 6c 5e 3f 2b 7f 0a 3e 9f b1 0d 3e
       -0.025664492 0.8688501 0.13525073 0.13837288
000080 7f 2a cd be de bf b1 3e 85 da 95 bf 44 a1 66 3f
       -0.40071484 0.34716696 -1.1707312 0.9008982
000090 09 ad b3 3e e9 9a a1 bf c9 6d 5f 3e 65 ef a6 3f
       0.35092953 -1.26254 0.21819223 1.3041807

features.6.block.3.0.weight_bias f4 [40]
000000 61 93 8f 40 0b 21 0f be e6 a0 b4 bf fe ad 65 bf
       4.4867406 -0.13977449 -1.4111602 -0.89718616
000010 ba 23 dd be a3 aa 08 bf 89 28 7e 3e 03 af 4e bf
       -0.4319132 -0.5338537 0.2482015 -0.80735797
000020 62 45 2c bf 33 ab 05 bd f1 3f 01 bf 84 27 cd 3d
       -0.6729337 -0.03263397 -0.5048819 0.10017303
000030 85 32 6d 3e b0 68 7c be 55 58 cf 3e cd 7b 10 3f
       0.23163803 -0.2464931 0.4049708 0.56438905
000040 b3 a5 dd be 25 bc 93 be 80 37 05 c0 41 e1 3a bf
       -0.4329048 -0.2885448 -2.0815125 -0.7299996
000050 36 3b fe 3f 71 01 24 3f 57 c6 b9 3f aa 0e 9c bf
       1.986182 0.640647 1.4513654 -1.2191975
000060 10 ff 32 bd 34 8a 4b 3f 25 8a 35 40 0d 1d 22 3f
       -0.043700278 0.79507756 2.8365567 0.6332558
000070 ee b6 77 40 a6 58 87 3f 91 90 84 bf 66 de 38 bf
       3.8705401 1.0573928 -1.0356618 -0.72214353
000080 e6 d9 ce 3e 25 eb e5 3f 3b 96 87 bf b0 50 98 3f
       0.40400618 1.7962385 -1.0592722 1.1899624
000090 95 4e e8 3d 3b 8b fe bf 58 c2 9d be 79 7d 93 bf
       0.11343113 -1.988624 -0.30812335 -1.1522666

features.7.block.3.0.weight_bias f4 [48]
000000 46 d5 23 3e be dc 82 be 5b 1d 9d 3e ea de eb bf
       0.15999326 -0.25559038 0.3068646 -1.8427403
000010 0e d0 2a bf 43 4d 96 be 65 81 06 be 98 88 23 bf
       -0.66723716 -0.2935582 -0.13135298 -0.638803
000020 10 48 22 40 af 89 2b bc ac a0 07 bf b0 b9 38 3f
       2.5356483 -0.010469838 -0.5297954 0.72158337
000030 f9 6e 5e c0 a2 bf 44 3e e1 43 1f 3e 27 03 53 3e
       -3.4755232 0.19213727 0.15553237 0.20606671
000040 1a e5 32 bf e8 48 7f bf 29 5b 91 bf b3 35 4b be
       -0.6988083 -0.9972062 -1.1355945 -0.19844703
000050 f5 6f a3 bf a5 33 8f 3f 3d da 2c bf a1 c1 eb be
       -1.2768542 1.1187636 -0.67520505 -0.46046165
000060 33 e7 39 3f 4e 05 0c 3f 28 cf 67 3f 73 15 ac 3e
       0.72618407 0.54695594 0.9055047 0.33610114
000070 cb 5d 9a bf 86 92 a4 bd b8 29 02 be 59 9f b4 bf
       -1.2059873 -0.0803576 -0.12711227 -1.4111129
000080 66 64 de 3d 8e c3 92 bf 80 d6 1d be 03 a2 54 3f
       0.10858993 -1.1465929 -0.15413857 0.8305971
000090 9b 0e c9 bf 04 f1 d7 bf a0 c5 6d 3f 78 b4 3c 3f
       -1.5707582 -1.6870427 0.92879677 0.73712873
0000a0 f7 b9 6f 3f 53 93 fd be ee f2 48 3e 00 d8 54 bf
       0.93643135 -0.49526462 0.1962392 -0.8314209
0000b0 a2 78 85 bf 72 cb 1c 3e 91 c8 c0 bf af ae 06 bf
       -1.0427439 0.15311983 -1.5061208 -0.52610296

features.8.block.3.0.weight_bias f4 [48]
000000 85 3f 03 40 fb fc 9a bd ef c0 fb be 9a 94 21 3f
       2.050752 -0.075677834 -0.49170634 0.63117373
000010 d6 9a 9f bf a8 a5 16 3f 1b d3 5e be 3e 88 c8 be
       -1.2469127 0.5884652 -0.21760218 -0.39166445
000020 be a0 22 40 d0 18 80 be 71 2d 8a 3d 58 82 10 3f
       2.541061 -0.2501893 0.067469485 0.5644889
000030 90 e7 4d be 34 69 95 bf 07 1b 84 be 7a 4d 85 3e
       -0.20107865 -1.167273 -0.2580187 0.26035672
000040 54 f9 f3 be a3 0e c8 3e 1c ad 81 3d d6 c5 09 3e
       -0.4765116 0.39073667 0.06331846 0.13454375
000050 fb 60 21 be 5c f7 42 bf 70 cb ce 3e 9d b2 0e 3e
       -0.15759651 -0.7615869 0.40389585 0.13935323
000060 3c 00 4e 3f 44 87 7d be 4a a8 40 3d ce 02 35 3e
       0.8046911 -0.24758631 0.047035493 0.17676851
000070 16 5c 7a 3f 45 3e 14 3e 57 f1 21 3e 7c 1a b2 3e
       0.9779676 0.14476879 0.1581472 0.3478583
000080 7b 44 58 3e 73 a0 07 bf a1 74 0f be 4e 30 97 be
       0.21119873 -0.529792 -0.14009334 -0.2952904
000090 e8 32 de bf cf e0 46 3d ec 66 11 3e af a1 21 3f
       -1.7359285 0.048554238 0.14199418 0.63137335
0000a0 4d 78 72 3f 4a f5 0a 3f 2e 18 0c 3e b5 63 e5 3e
       0.94714814 0.5428053 0.13681099 0.44802633
0000b0 0d 69 c8 3f db 80 90 3e db 22 8a 3e cb a4 59 3e
       1.5657059 0.2822331 0.26979718 0.2125427
