models/wafer_mobilenetv3_tvt.onnx (onnx, 302302 bytes, 18 tensors)

features.1.block.1.fc1.bias f4 [8]
-1.7193207e-09 -2.3163826e-09 -0.00016353765 -1.8772193e-09 -1.2890178e-09 1.7530155e-08 -5.6566014e-09 9.6715275e-11
00000000: 384d ecb0 3c2e 1fb1 4e7b 2bb9 6400 01b1
00000010: 4829 b1b0 3895 9632 fe5b c2b1 dcad d42e

features.1.block.1.fc2.bias f4 [16]
0.563044 0.648491 0.3919097 -1.1248838 -0.71810097 1.3490471 -0.3503968 -0.5126581
0.5624998 -0.35013643 0.634108 -0.23492828 -0.4357654 -0.10877511 0.16296472 -0.35888642
00000000: a723 103f 8203 263f 63a8 c83e 31fc 8fbf
00000010: 77d5 37bf 93ad ac3f 3667 b3be 903d 03bf
00000020: fdff 0f3f 1545 b3be e754 223f 0a91 70be
00000030: a41c dfbe 7cc5 debd 39e0 263e f6bf b7be

features.4.block.2.fc1.bias f4 [24]
-2.9209104e-09 -6.32152e-09 -1.1811804e-09 -4.2170853e-09 -2.1328679e-09 -4.785395e-09 -3.2381384e-09 7.105119e-09
-2.6542907e-10 -5.9255156e-09 0.19757174 -1.9250022e-09 -3.904174e-09 -2.842141e-08 7.313465e-10 -3.4442976e-10
-1.8275528e-09 -4.476179e-09 -1.0232681e-09 -1.2707582e-09 2.3356557e-09 -8.4432425e-09 -4.032502e-09 -1.1239564e-10
00000000: 33b9 48b1 ae34 d9b1 1757 a2b0 e0e5 90b1
00000010: cf91 12b1 c86c a4b1 ef85 5eb1 4a21 f431
00000020: d2eb 91af 6399 cbb1 3f50 4a3e ff48 04b1
00000030: 7a25 86b1 5723 f4b2 ef07 4930 2e5a bdaf
00000040: 4c2d fbb0 e3cc 99b1 0ca3 8cb0 d4a6 aeb0
00000050: 4a81 2031 c60d 11b2 438e 8ab1 1f29 f7ae

features.5.block.2.fc1.bias f4 [64]
-0.022632606 0.28318435 0.004076171 0.097511835 0.13106813 0.11377928 0.19668256 0.12900622
-0.1392157 -0.0990606 0.20565781 0.1771466 -0.35258374 -0.08925264 0.113486625 0.0291801
-0.057907686 0.39630988 0.1087495 -0.03211499 0.0689677 0.026917456 0.10131214 0.43517566
0.07212666 0.13336985 0.15897162 0.0027367058 0.19776025 -0.04474691 -0.13921417 0.15112488
-0.080183245 -0.014594606 0.11187843 0.10251368 -0.033401173 0.28787225 -0.02953012 -0.05908148
0.56335145 0.2169314 0.22173536 0.101592965 0.29928872 0.02642828 -0.09176068 0.024734415
-0.029865354 0.1444467 -0.100950256 0.07466432 0.01664953 0.0032718163 0.21118435 0.13537765
-0.029783275 0.055152174 0.5269977 0.26085815 0.06675631 0.057734497 -0.0011436989 0.1493802
00000000: 0468 b9bc 8afd 903e 6791 853b 49b4 c73d
00000010: b936 063e 1c05 e93d 2767 493e 351a 043e
00000020: 8f8e 0ebe 49e0 cabd f697 523e eb65 353e
00000030: db85 b4be 17ca b6bd ad6b e83d 1b0b ef3c
00000040: 9c30 6dbd 21e9 ca3e 0fb8 de3d 028b 03bd
00000050: f03e 8d3d ff81 dc3c bd7c cf3d 58cf de3e
00000060: 24b7 933d 1b92 083e 75c9 223e 4e5a 333b
00000070: aa81 4a3e 8948 37bd 298e 0ebe 7bc0 1a3e
00000080: 1d37 a4bd 371e 6fbc 8520 e53d b1f2 d13d
00000090: abcf 08bd fe63 933e 26e9 f1bc 6cff 71bd
000000a0: cd37 103f 4423 5e3e 980e 633e f90f d03d
000000b0: 5f3c 993e 1f80 d83c 06ed bbbd d49f ca3c
000000c0: 30a8 f4bc d6e9 133e 02bf cebd 9be9 983d
000000d0: 9864 883c f86b 563b b640 583e 70a0 0a3e
000000e0: 0efc f3bc 3fe7 613d 52e9 063f 338f 853e
000000f0: 88b7 883d 027b 6c3d 2be8 95ba 20f7 183e

features.6.block.2.fc1.bias f4 [64]
0.029876683 0.08019744 -0.059344985 0.21734695 0.13685566 0.17582445 0.036758967 -0.027158575
0.1847001 0.28337958 0.07059096 0.13952012 0.122862376 0.0758811 -0.006512626 -0.053228233
0.0125182755 0.22816975 0.35453254 0.30821055 -0.027053118 0.14848183 0.07559265 0.14705472
-0.07486293 0.24287783 0.06321857 -0.0007159924 0.060367905 0.22384846 -0.13391781 0.042294793
-0.0587759 0.054832593 0.035822652 0.12756717 0.6148658 0.15311955 0.06871484 0.2280225
0.18484895 0.08365655 0.029020134 0.16472821 0.2101826 0.26693234 0.010878255 0.1138938
0.108683035 0.037687138 0.101666324 0.33430976 -0.03235138 -0.17358232 -0.24159428 0.3466823
0.01994116 0.0819608 0.038926348 0.041723046 0.12227089 0.2199319 0.04293471 0.04270236
00000000: f2bf f43c 8e3e a43d ba13 73bd 3390 5e3e
00000010: e423 0c3e 530b 343e 9290 163d a97b debc
00000020: 0622 3d3e 2117 913e fe91 903d 5dde 0e3e
00000030: 459f fb3d 8d67 9b3d de67 d5bb d905 5abd
00000040: 7419 4d3c 55a5 693e 4a85 b53e c6cd 9d3e
00000050: 809e ddbc 9f0b 183e 52d0 9a3d 8395 163e
00000060: bc51 99bd f7b4 783e bd78 813d 70b1 3bba
00000070: 5644 773d 8838 653e c021 09be 4e3d 2d3d
00000080: 00bf 70bd 2498 603d c6ba 123d f8a0 023e
00000090: d867 1d3f 5fcb 1c3e 5eba 8c3d bb7e 693e
000000a0: 0b49 3d3e 2054 ab3d a2bb ed3c 83ae 283e
000000b0: 1c3a 573e 5bab 883e b53a 323c 2741 e93d
000000c0: 3695 de3d d45d 1a3d 6f36 d03d a62a ab3e
000000d0: e182 04bd 90bf 31be 7e64 77be 5880 b13e
000000e0: a55b a33c 10db a73d 3c71 1f3d c9e5 2a3d
000000f0: 2969 fa3d d435 613e 4edc 2f3d abe8 2e3d

features.7.block.2.fc1.bias f4 [32]
1.600504e-10 -3.867258e-09 -9.088719e-09 -1.8354339e-07 -2.1506462e-07 8.6873997e-10 -3.6117342e-08 -7.72825e-09
2.6357363e-08 0.028290318 -0.015925644 -2.7659144e-08 0.31974855 2.1197966e-08 1.5018458e-08 0.023014922
-1.7559896e-06 2.03596e-08 -0.06469554 2.7897055e-08 0.027947268 9.342798e-09 -0.027595334 -4.981156e-08
-1.8826555e-08 1.2269308e-09 -3.0885843e-08 -8.267584e-09 -1.8230492e-09 4.35412e-09 0.06255969 1.7293715e-08
00000000: 2ffa 2f2f c3e0 84b1 9c24 1cb2 0614 45b4
00000010: 83ec 66b4 24cc 6e30 701f 1bb3 34c5 04b2
00000020: 7468 e232 19c1 e73c 7f76 82bc 1a97 edb2
00000030: 15b6 a33e d216 b632 f001 8132 ca89 bc3c
00000040: 58af ebb5 3ce3 ae32 187f 84bd 46a2 ef32
00000050: abf1 e43c 0f82 2032 9c0f e2bc 64f0 55b3
00000060: 08b8 a1b2 caa0 a830 58a7 04b3 3809 0eb2
00000070: d78e fab0 3f9b 9531 4b1f 803d 488d 9432

features.8.block.2.fc1.bias f4 [40]
0.17218854 0.095516734 0.32880518 0.51878625 0.069344506 0.25294685 0.115219265 0.19551674
0.116788015 -0.043250132 0.05980688 0.11706189 0.3687884 0.2559656 0.3076285 0.27289438
0.07517323 0.28811628 0.26406214 0.021781377 0.13556857 0.21028052 0.40647665 0.53992873
0.2994524 0.099023476 0.2678288 0.29059893 0.4480968 0.059389845 0.2392222 0.19097345
0.4855555 0.08193072 0.15185025 0.35262072 0.26222646 0.40195087 0.35625172 0.20921008
00000000: 3152 303e 479e c33d 2759 a83e 2dcf 043f
00000010: 7e04 8e3d 4082 813e 14f8 eb3d 8a35 483e
00000020: 8e2e ef3d 0d27 31bd 0ff8 743d 25be ef3d
00000030: d5d1 bc3e ec0d 833e 7c81 9d3e d0b8 8b3e
00000040: 6cf4 993d fa83 933e 2733 873e dc6e b23c
00000050: 7dd2 0a3e c753 573e b51d d03e c538 0a3f
00000060: d351 993e d2cc ca3d db20 893e 62c9 943e
00000070: f26c e53e c442 733d aaf6 743e 8b8e 433e
00000080: bb9a f83e 4bcb a73d a27e 1b3e b48a b43e
00000090: 8c42 863e 81cc cd3e a066 b63e 2b3b 563e

classifier.3.bias f4 [10]
0.00042683308 -0.004402486 -0.01468839 0.005262387 0.0057832347 0.02121771 -0.02377544 -0.020606702
-0.03531601 -0.029196009
00000000: 91c8 df39 bb42 90bb 93a7 70bc 1a70 ac3b
00000010: 4a81 bd3b c3d0 ad3c b6c4 c2bc 63cf a8bc
00000020: 85a7 10bd 782c efbc

features.0.0.weight_bias f4 [16]
4.714815 2.5439537 3.0700567 -1.6617204 2.7858512 2.751608 0.16938367 -0.05944369
2.727485 2.9515104 2.4031608 -0.7769194 0.26101306 0.541241 1.1539938 -3.8767562
00000000: c4df 9640 23d0 2240 cf7b 4440 41b3 d4bf
00000010: 634b 3240 581a 3040 ea72 2d3e 3a7b 73bd
00000020: 1d8f 2e40 8ce5 3c40 63cd 1940 31e4 46bf
00000030: 81a3 853e c58e 0a3f 12b6 933f c61c 78c0

features.1.block.0.0.weight_bias f4 [16]
0.5536332 1.7821164 3.3531969 0.2535993 0.2561058 3.032342 0.14295524 0.56480944
1.9300916 0.47577587 0.21875572 0.15587768 0.2352573 0.26962838 0.18491597 1.6645882
00000000: e8ba 0d3f 641c e43f c79a 5640 c4d7 813e
00000010: 4d20 833e e411 4240 dc62 123e 5a97 103f
00000020: 3e0d f73f e598 f33e 8001 603e 669e 1f3e
00000030: 4ae7 703e bb0c 8a3e 9d5a 3d3e 3a11 d53f

features.1.block.2.0.weight_bias f4 [16]
3.4285045 -6.7578516 -3.9767509 -2.2639687 -0.80007106 0.41183618 -7.2790337 -0.45558238
-8.246746 -3.1099808 0.4135056 -2.5227015 -2.8683794 -1.8446683 -0.9014501 2.37971
00000000: 9e6c 5b40 5240 d8c0 1683 7ec0 dde4 10c0
00000010: 75d1 4cbf 31dc d23e d8ed e8c0 1842 e9be
00000020: acf2 03c1 ed09 47c0 02b7 d33e f173 21c0
00000030: 8793 37c0 171e ecbf 6fc5 66bf 2b4d 1840

features.2.block.2.0.weight_bias f4 [24]
-0.51468873 -0.9605681 5.022712 -0.4409969 -1.616246 -2.5276644 1.0817331 5.701452
-3.8069985 -1.4959753 -0.061856933 1.8408786 0.23191786 0.878376 2.5832627 1.6135746
2.261505 0.20078245 2.136609 1.5448226 -1.460939 -0.7891138 0.04905406 -3.4193206
00000000: a4c2 03bf cae7 75bf 0fba a040 58ca e1be
00000010: 26e1 cebf 41c5 21c0 3b76 8a3f 4b72 b640
00000020: dda5 73c0 1e7c bfbf b25d 7dbd e9a1 eb3f
00000030: e07b 6d3e 40dd 603f 2d54 2540 9d89 ce3f
00000040: 7fbc 1040 ea99 4d3e 34be 0840 bfbc c53f
00000050: 0d00 bbbf 5d03 4abf e9ec 483d 26d6 5ac0

features.3.block.2.0.weight_bias f4 [24]
-4.392657 0.44568783 1.6145016 0.4359264 0.74464184 3.5096629 -0.8090411 1.8931471
-0.5532856 -0.2728492 0.14580712 -1.004859 -1.293071 -1.9466344 -1.0618657 1.4473662
-2.2008684 -2.8877714 0.6107893 -2.8868518 -0.6260879 0.4072208 1.2578156 -0.24922162
00000000: a590 8cc0 3231 e43e fda7 ce3f bf31 df3e
00000010: d9a0 3e3f 519e 6040 511d 4fbf a552 f23f
00000020: 20a4 0dbf e4b2 8bbe 764e 153e 389f 80bf
00000030: 5a83 a5bf 512b f9bf 37eb 87bf 4c43 b93f
00000040: 07db 0cc0 3fd1 38c0 b05c 1c3f 2ec2 38c0
00000050: 4c47 20bf 3f7f d03e 1a00 a13f f433 7fbe

features.4.block.3.0.weight_bias f4 [40]
0.06998574 -1.861454 -0.3968484 -2.3619034 1.0786026 1.0727677 -0.6308832 -0.62928116
2.1201878 0.5783737 0.89030147 1.4826641 -0.66889304 -3.1790564 2.443829 -0.10874914
2.2916262 -4.6591964 3.7463214 0.48620737 -0.16389969 -0.7939187 0.5808206 -1.4832652
0.37331846 0.70204836 1.3429092 -0.6199413 -1.290869 2.5981543 0.21029094 -0.62242365
-0.3342815 1.0338473 -2.6597629 -0.06681859 -1.8896489 1.4368789 -0.81004465 -0.61960834
00000000: af54 8f3d 2044 eebf b72f cbbe 6d29 17c0
00000010: a60f 8a3f 7450 893f 9081 21bf 9218 21bf
00000020: 28b1 0740 4c10 143f ccea 633f f0c7 bd3f
00000030: 933c 2bbf a975 4bc0 b267 1c40 deb7 debd
00000040: 01aa 1240 2318 95c0 bbc3 6f40 2cf0 f83e
00000050: 52d5 27be 423e 4bbf a9b0 143f a2db bdbf
00000060: 9923 bf3e 71b9 333f 73e4 ab3f 79b4 1ebf
00000070: 323b a5bf 2948 2640 8256 573e 2857 1fbf
00000080: f226 abbe 1c55 843f 8e39 2ac0 2fd8 88bd
00000090: 04e0 f1bf a6eb b73f 165f 4fbf a79e 1ebf

features.5.block.3.0.weight_bias f4 [40]
-0.11705262 0.97730243 -0.25451323 0.5456371 0.21328308 -0.35602072 -0.20468065 -0.7385752
-0.8682387 -0.04711574 0.025772203 -0.36129475 0.47753218 -0.8680209 0.89493364 1.6837661
0.0990523 0.07329904 0.08581253 -0.40049818 -0.004899188 0.077712476 -0.34330234 0.30871677
-0.46989068 -1.6463628 2.5936635 1.2526724 -0.10821589 0.98749375 0.26010942 0.28859964
-0.32071635 0.22703302 -1.2363653 0.6693949 0.28574488 -1.1886322 0.2348167 1.2324302
00000000: 49b9 efbd 7e30 7a3f 8f4f 82be dfae 0b3f
00000010: e166 5a3e 5948 b6be ce97 51be 4413 3dbf
00000020: e444 5ebf 6ffc 40bd 3a20 d33c a0fb b8be
00000030: 197f f43e 9e36 5ebf 5f1a 653f a685 d73f
00000040: efdb ca3d cf1d 963d 7bbe af3d 190e cdbe
00000050: 5e89 a0bb b827 9f3d 53c5 afbe 2010 9e3e
00000060: 8395 f0be 04bc d2bf 95fe 2540 9257 a03f
00000070: 4ba0 ddbd 64cc 7c3f 102d 853e 55c3 933e
00000080: ef34 a4be 587b 683e 3841 9ebf 775d 2b3f
00000090: 274d 923e 1a25 98bf ca73 703e 46c0 9d3f

features.6.block.3.0.weight_bias f4 [40]
4.251547 -0.07416212 -1.3691869 -0.90806794 -0.42766076 -0.43608776 0.25462496 -0.6430269
-0.6423952 -0.044193584 -0.52277035 0.10325015 0.26784888 -0.09258086 0.38621128 0.4650512
-0.3770669 -0.2835016 -1.9362158 -0.8444593 2.0401227 0.5876793 1.5012708 -1.4103482
-0.036436934 0.83773667 2.6084657 0.541797 3.6771684 0.9179083 -0.95516145 -0.7295544
0.45025262 1.5519055 -1.0513742 1.0947908 -0.054346792 -1.7127312 -0.33354366 -1.0947416
00000000: ac0c 8840 4fe2 97bd 8441 afbf 2477 68bf
00000010: 5af6 dabe e546 dfbe 345e 823e 699d 24bf
00000020: 0374 24bf 5504 35bd 47d4 05bf d174 d33d
00000030: 7d23 893e 099b bdbd 7cbd c53e 311b ee3e
00000040: ea0e c1be 1f27 91be ebd5 f7bf 7c2e 58bf
00000050: 5f91 0240 2772 163f a429 c03f 4a86 b4bf
00000060: e53e 15bd e975 563f 1af1 2640 35b3 0a3f
00000070: ba56 6b40 0afc 6a3f 7685 74bf 14c4 3abf
00000080: 8387 e63e d7a4 c63f 6e93 86bf 1b22 8c3f
00000090: be9a 5ebd c73a dbbf 3cc6 aabe 7e20 8cbf

features.7.block.3.0.weight_bias f4 [48]
0.18847156 -0.25323316 0.2983906 -1.8972561 -0.694684 -0.32266152 -0.0953447 -0.6284529
2.5383408 -0.118692376 -0.58253235 0.7166286 -3.19288 0.18402342 0.2076618 0.17000471
-0.66599184 -0.9124587 -0.93418235 -0.15002143 -1.157671 1.2324901 -0.6773549 -0.43238872
0.82455975 0.4656485 1.0689808 0.37434176 -1.1704367 -0.06889867 -0.130287 -1.4806452
0.09306689 -1.0127763 -0.2249786 0.7650989 -1.5902914 -1.4763249 1.0288041 0.7824665
0.8825369 -0.4811037 0.14608309 -0.825576 -1.0073036 0.10515898 -1.5396304 -0.5109817
00000000: b0fe 403e c7a7 81be a7c6 983e 4ad9 f2bf
00000010: d0d6 31bf e433 a5be 1544 c3bd 4ae2 20bf
00000020: 2d74 2240 fd14 f3bd d720 15bf f974 373f
00000030: 2558 4cc0 a370 3c3e 4ba5 543e b715 2e3e
00000040: 717e 2abf e596 69bf 9326 6fbf 389f 19be
00000050: 902e 94bf 3cc2 9d3f 2167 2dbf 0e62 ddbe
00000060: 5916 533f 7b69 ee3e 5dd4 883f b9a9 bf3e
00000070: dfd0 95bf bf1a 8dbd f569 05be c885 bdbf
00000080: db99 be3d a7a2 81bf ca60 66be 86dd 433f
00000090: ab8e cbbf 37f8 bcbf daaf 833f b94f 483f
000000a0: f0ed 613f 3953 f6be ce96 153e f358 53bf
000000b0: 53ef 80bf 975d d73d 9c12 c5bf b2cf 02bf

features.8.block.3.0.weight_bias f4 [48]
1.989418 -0.02293764 -0.41235876 0.73083717 -1.2896373 0.48014653 -0.23683886 -0.4855781
2.4691322 -0.25274274 0.053146787 0.5335619 -0.31740367 -1.0905702 -0.23452649 0.26957172
-0.52531624 0.48392147 0.07180235 0.13739921 -0.06258753 -0.69937 0.43780676 0.18400432
0.9183737 -0.29001242 0.033561517 0.17220557 0.95179987 0.14268138 0.15551808 0.30820075
0.23022515 -0.5488532 -0.20670417 -0.267536 -1.7081804 0.01920559 0.19366105 0.66277677
0.92458236 0.5952596 0.14067833 0.34043136 1.6083657 0.20934694 0.26052177 0.21035269
00000000: 40a5 fe3f b8e7 bbbc b020 d3be 2518 3b3f
00000010: d612 a5bf c4d5 f53e e385 72be b19d f8be
00000020: 4306 1e40 7f67 81be 72b0 593d 8397 083f
00000030: bc82 a2be ce97 8bbf b627 70be 4e05 8a3e
00000040: 207b 06bf 8ec4 f73e 1c0d 933d 61b2 0c3e
00000050: e42d 80bd ea09 33bf 3528 e03e a16b 3c3e
00000060: 8a1a 6b3f 827c 94be cd77 093d a856 303e
00000070: 28a9 733f 111b 123e 2240 1f3e 7dcc 9d3e
00000080: 24c0 6b3e a581 0cbf 42aa 53be 7bfa 88be
00000090: a8a5 dabf 0b55 9d3c 154f 463e bdab 293f
000000a0: 6eb1 6c3f ef62 183f fb0d 103e 054d ae3e
000000b0: edde cd3f 0b5f 563e 1c63 853e b266 573e
